…
Attempting to load exarl.agents.agent_vault with MLDQN
Learner 1 : Available GPUs: []
Learner 7 : Available GPUs: []
Learner 5 : Available GPUs: []
Learner 6 : Available GPUs: []
Learner 4 : Available GPUs: []
Learner 2 : Available GPUs: []
Learner 0 : Available GPUs: []
Learner 3 : Available GPUs: []

Creating ML_RMA workflow

Creating ML_RMA workflow

Creating ML_RMA workflow

Model: "learner"
_________________________________________________________________
Layer (type)                 Output Shape              Param #   
=================================================================
lstm (LSTM)                  (None, 1, 56)             13888     
_________________________________________________________________
batch_normalization (BatchNo (None, 1, 56)             224       
_________________________________________________________________
dropout (Dropout)            (None, 1, 56)             0         
_________________________________________________________________
lstm_1 (LSTM)                (None, 1, 56)             25312     
_________________________________________________________________
dropout_1 (Dropout)          (None, 1, 56)             0         
_________________________________________________________________
lstm_2 (LSTM)                (None, 56)                25312     
_________________________________________________________________
dropout_2 (Dropout)          (None, 56)                0         
_________________________________________________________________
dense (Dense)                (None, 30)                1710      
=================================================================
Total params: 66,446
Trainable params: 66,334
Non-trainable params: 112
_________________________________________________________________


Creating ML_RMA workflow
Creating ML_RMA workflow



Creating ML_RMA workflow



Creating ML_RMA workflow
Model: "learner"
_________________________________________________________________
Layer (type)                 Output Shape              Param #   
=================================================================
lstm (LSTM)                  (None, 1, 56)             13888     
_________________________________________________________________
batch_normalization (BatchNo (None, 1, 56)             224       
_________________________________________________________________
dropout (Dropout)            (None, 1, 56)             0         
_________________________________________________________________
lstm_1 (LSTM)                (None, 1, 56)             25312     
_________________________________________________________________
dropout_1 (Dropout)          (None, 1, 56)             0         
_________________________________________________________________
lstm_2 (LSTM)                (None, 56)                25312     
_________________________________________________________________
dropout_2 (Dropout)          (None, 56)                0         
_________________________________________________________________
dense (Dense)                (None, 30)                1710      
=================================================================
Total params: 66,446
Trainable params: 66,334
Non-trainable params: 112
_________________________________________________________________
Model: "learner"
_________________________________________________________________
Layer (type)                 Output Shape              Param #   
=================================================================
lstm (LSTM)                  (None, 1, 56)             13888     
_________________________________________________________________
batch_normalization (BatchNo (None, 1, 56)             224       
_________________________________________________________________
dropout (Dropout)            (None, 1, 56)             0         
_________________________________________________________________
lstm_1 (LSTM)                (None, 1, 56)             25312     
_________________________________________________________________
dropout_1 (Dropout)          (None, 1, 56)             0         
_________________________________________________________________
lstm_2 (LSTM)                (None, 56)                25312     
_________________________________________________________________
dropout_2 (Dropout)          (None, 56)                0         
_________________________________________________________________
Creating ML_RMA workflow
dense (Dense)                (None, 30)                1710      
=================================================================
Total params: 66,446
Trainable params: 66,334
Non-trainable params: 112
_________________________________________________________________
Creating ML_RMA workflow


Creating ML_RMA workflow
Creating ML_RMA workflow

Model: "learner"
_________________________________________________________________
Layer (type)                 Output Shape              Param #   
=================================================================
lstm (LSTM)                  (None, 1, 56)             13888     
_________________________________________________________________
batch_normalization (BatchNo (None, 1, 56)             224       
_________________________________________________________________
dropout (Dropout)            (None, 1, 56)             0         
_________________________________________________________________
lstm_1 (LSTM)                (None, 1, 56)             25312     
_________________________________________________________________
dropout_1 (Dropout)          (None, 1, 56)             0         
_________________________________________________________________
lstm_2 (LSTM)                (None, 56)                25312     
_________________________________________________________________
dropout_2 (Dropout)          (None, 56)                0         
_________________________________________________________________
dense (Dense)                (None, 30)                1710      
=================================================================

Total params: 66,446
Trainable params: 66,334
Non-trainable params: 112
_________________________________________________________________
Model: "learner"
_________________________________________________________________
Layer (type)                 Output Shape              Param #   
=================================================================
lstm (LSTM)                  (None, 1, 56)             13888     
_________________________________________________________________
batch_normalization (BatchNo (None, 1, 56)             224       
_________________________________________________________________
dropout (Dropout)            (None, 1, 56)             0         
_________________________________________________________________
lstm_1 (LSTM)                (None, 1, 56)             25312     
_________________________________________________________________
dropout_1 (Dropout)          (None, 1, 56)             0         
_________________________________________________________________
lstm_2 (LSTM)                (None, 56)                25312     
_________________________________________________________________
dropout_2 (Dropout)          (None, 56)                0         
_________________________________________________________________
dense (Dense)                (None, 30)                1710      
=================================================================
Total params: 66,446
Trainable params: 66,334
Non-trainable params: 112
_________________________________________________________________



Model: "learner"
_________________________________________________________________
Layer (type)                 Output Shape              Param #   
=================================================================
lstm (LSTM)                  (None, 1, 56)             13888     
_________________________________________________________________
batch_normalization (BatchNo (None, 1, 56)             224       
_________________________________________________________________
dropout (Dropout)            (None, 1, 56)             0         
_________________________________________________________________
lstm_1 (LSTM)                (None, 1, 56)             25312     
_________________________________________________________________
dropout_1 (Dropout)          (None, 1, 56)             0         
_________________________________________________________________
lstm_2 (LSTM)                (None, 56)                25312     
_________________________________________________________________
dropout_2 (Dropout)          (None, 56)                0         
_________________________________________________________________
dense (Dense)                (None, 30)                1710      
=================================================================
Total params: 66,446
Trainable params: 66,334
Non-trainable params: 112
_________________________________________________________________
Model: "learner"
_________________________________________________________________
Layer (type)                 Output Shape              Param #   
=================================================================
lstm (LSTM)                  (None, 1, 56)             13888     
_________________________________________________________________
batch_normalization (BatchNo (None, 1, 56)             224       
_________________________________________________________________
dropout (Dropout)            (None, 1, 56)             0         
_________________________________________________________________
lstm_1 (LSTM)                (None, 1, 56)             25312     
_________________________________________________________________
dropout_1 (Dropout)          (None, 1, 56)             0         
_________________________________________________________________
lstm_2 (LSTM)                (None, 56)                25312     
_________________________________________________________________
dropout_2 (Dropout)          (None, 56)                0         
_________________________________________________________________
Model: "learner"
_________________________________________________________________
dense (Dense)                (None, 30)                1710      
=================================================================
Layer (type)                 Output Shape              Param #   
=================================================================
lstm (LSTM)                  (None, 1, 56)             13888     
_________________________________________________________________
Total params: 66,446
Trainable params: 66,334
Non-trainable params: 112

batch_normalization (BatchNo (None, 1, 56)             224       
_________________________________________________________________
_________________________________________________________________
dropout (Dropout)            (None, 1, 56)             0         
_________________________________________________________________
lstm_1 (LSTM)                (None, 1, 56)             25312     
_________________________________________________________________
dropout_1 (Dropout)          (None, 1, 56)             0         
_________________________________________________________________
lstm_2 (LSTM)                (None, 56)                25312     
_________________________________________________________________
dropout_2 (Dropout)          (None, 56)                0         
_________________________________________________________________
dense (Dense)                (None, 30)                1710      
=================================================================
Total params: 66,446
Trainable params: 66,334
Non-trainable params: 112
_________________________________________________________________
Creating ML_RMA workflow


Creating ML_RMA workflow

Creating ML_RMA workflow

Creating ML_RMA workflow
Creating ML_RMA workflow








Creating ML_RMA workflow
Creating ML_RMA workflow
Creating ML_RMA workflow
…
